[32m[I 240722 12:16:19 train_MambaHSI:114](B[m ./RUNS/MambaHSI/UP
[32m[I 240722 12:16:21 train_MambaHSI:167](B[m {'net_name': 'MambaHSI', 'dataset_index': 0, 'num_list': [30, 10], 'lr': 0.0003, 'seed_list': [0]}
[32m[I 240722 12:16:21 train_MambaHSI:168](B[m MambaHSI(
      (patch_embedding): Sequential(
        (0): Conv2d(103, 128, kernel_size=(1, 1), stride=(1, 1))
        (1): GroupNorm(4, 128, eps=1e-05, affine=True)
        (2): SiLU()
      )
      (mamba): Sequential(
        (0): BothMamba(
          (softmax): Softmax(dim=0)
          (spa_mamba): SpaMamba(
            (mamba): Mamba(
              (in_proj): Linear(in_features=128, out_features=512, bias=False)
              (conv1d): Conv1d(256, 256, kernel_size=(4,), stride=(1,), padding=(3,), groups=256)
              (act): SiLU()
              (x_proj): Linear(in_features=256, out_features=40, bias=False)
              (dt_proj): Linear(in_features=8, out_features=256, bias=True)
              (out_proj): Linear(in_features=256, out_features=128, bias=False)
            )
            (proj): Sequential(
              (0): GroupNorm(4, 128, eps=1e-05, affine=True)
              (1): SiLU()
            )
          )
          (spe_mamba): SpeMamba(
            (mamba): Mamba(
              (in_proj): Linear(in_features=32, out_features=128, bias=False)
              (conv1d): Conv1d(64, 64, kernel_size=(4,), stride=(1,), padding=(3,), groups=64)
              (act): SiLU()
              (x_proj): Linear(in_features=64, out_features=34, bias=False)
              (dt_proj): Linear(in_features=2, out_features=64, bias=True)
              (out_proj): Linear(in_features=64, out_features=32, bias=False)
            )
            (proj): Sequential(
              (0): GroupNorm(4, 128, eps=1e-05, affine=True)
              (1): SiLU()
            )
          )
        )
        (1): AvgPool2d(kernel_size=2, stride=2, padding=0)
        (2): BothMamba(
          (softmax): Softmax(dim=0)
          (spa_mamba): SpaMamba(
            (mamba): Mamba(
              (in_proj): Linear(in_features=128, out_features=512, bias=False)
              (conv1d): Conv1d(256, 256, kernel_size=(4,), stride=(1,), padding=(3,), groups=256)
              (act): SiLU()
              (x_proj): Linear(in_features=256, out_features=40, bias=False)
              (dt_proj): Linear(in_features=8, out_features=256, bias=True)
              (out_proj): Linear(in_features=256, out_features=128, bias=False)
            )
            (proj): Sequential(
              (0): GroupNorm(4, 128, eps=1e-05, affine=True)
              (1): SiLU()
            )
          )
          (spe_mamba): SpeMamba(
            (mamba): Mamba(
              (in_proj): Linear(in_features=32, out_features=128, bias=False)
              (conv1d): Conv1d(64, 64, kernel_size=(4,), stride=(1,), padding=(3,), groups=64)
              (act): SiLU()
              (x_proj): Linear(in_features=64, out_features=34, bias=False)
              (dt_proj): Linear(in_features=2, out_features=64, bias=True)
              (out_proj): Linear(in_features=64, out_features=32, bias=False)
            )
            (proj): Sequential(
              (0): GroupNorm(4, 128, eps=1e-05, affine=True)
              (1): SiLU()
            )
          )
        )
        (3): AvgPool2d(kernel_size=2, stride=2, padding=0)
        (4): BothMamba(
          (softmax): Softmax(dim=0)
          (spa_mamba): SpaMamba(
            (mamba): Mamba(
              (in_proj): Linear(in_features=128, out_features=512, bias=False)
              (conv1d): Conv1d(256, 256, kernel_size=(4,), stride=(1,), padding=(3,), groups=256)
              (act): SiLU()
              (x_proj): Linear(in_features=256, out_features=40, bias=False)
              (dt_proj): Linear(in_features=8, out_features=256, bias=True)
              (out_proj): Linear(in_features=256, out_features=128, bias=False)
            )
            (proj): Sequential(
              (0): GroupNorm(4, 128, eps=1e-05, affine=True)
              (1): SiLU()
            )
          )
          (spe_mamba): SpeMamba(
            (mamba): Mamba(
              (in_proj): Linear(in_features=32, out_features=128, bias=False)
              (conv1d): Conv1d(64, 64, kernel_size=(4,), stride=(1,), padding=(3,), groups=64)
              (act): SiLU()
              (x_proj): Linear(in_features=64, out_features=34, bias=False)
              (dt_proj): Linear(in_features=2, out_features=64, bias=True)
              (out_proj): Linear(in_features=64, out_features=32, bias=False)
            )
            (proj): Sequential(
              (0): GroupNorm(4, 128, eps=1e-05, affine=True)
              (1): SiLU()
            )
          )
        )
      )
      (cls_head): Sequential(
        (0): Conv2d(128, 128, kernel_size=(1, 1), stride=(1, 1))
        (1): GroupNorm(4, 128, eps=1e-05, affine=True)
        (2): SiLU()
        (3): Conv2d(128, 9, kernel_size=(1, 1), stride=(1, 1))
      )
    )
[32m[I 240722 12:16:21 train_MambaHSI:190](B[m Adam (
    Parameter Group 0
        amsgrad: False
        betas: (0.9, 0.999)
        capturable: False
        differentiable: False
        eps: 1e-08
        foreach: None
        fused: None
        lr: 0.0003
        maximize: False
        weight_decay: 0
    )
[32m[I 240722 12:16:23 train_MambaHSI:234](B[m Iter:0|loss:2.2133312225341797
…
